r@Azumith:~/Documents/Projects/orpheus/orpheus$ python3 train.py
TrainerAE(
  (backbone): Orpheus(
    (pqmf): PQMF()
    (encoder): Encoder(
      (stages): ModuleList(
        (0): EncoderStage(
          (expand): Conv1d(16, 96, kernel_size=(7,), stride=(1,), padding=(3,), bias=False)
          (blocks): ModuleList(
            (0): EncoderBlock(
              (conv): ModuleList(
                (0): EBlock_DS(
                  (act1): Snake()
                  (act2): ELU(alpha=1.0)
                  (act3): Snake()
                  (norm): GroupNorm(4, 96, eps=1e-05, affine=True)
                  (pw1): Conv1d(96, 144, kernel_size=(1,), stride=(1,), bias=False)
                  (dw): Conv1d(144, 144, kernel_size=(3,), stride=(1,), padding=(1,), groups=144, bias=False)
                  (grn): GRN()
                  (pw2): Conv1d(144, 96, kernel_size=(1,), stride=(1,), bias=False)
                  (drop_path): DropPath(drop_prob=0.050)
                )
                (1): EBlock_DS(
                  (act1): Snake()
                  (act2): ELU(alpha=1.0)
                  (act3): Snake()
                  (norm): GroupNorm(4, 96, eps=1e-05, affine=True)
                  (pw1): Conv1d(96, 144, kernel_size=(1,), stride=(1,), bias=False)
                  (dw): Conv1d(144, 144, kernel_size=(3,), stride=(1,), padding=(3,), dilation=(3,), groups=144, bias=False)
                  (grn): GRN()
                  (pw2): Conv1d(144, 96, kernel_size=(1,), stride=(1,), bias=False)
                  (drop_path): DropPath(drop_prob=0.050)
                )
                (2): EBlock_DS(
                  (act1): Snake()
                  (act2): ELU(alpha=1.0)
                  (act3): Snake()
                  (norm): GroupNorm(4, 96, eps=1e-05, affine=True)
                  (pw1): Conv1d(96, 144, kernel_size=(1,), stride=(1,), bias=False)
                  (dw): Conv1d(144, 144, kernel_size=(3,), stride=(1,), padding=(9,), dilation=(9,), groups=144, bias=False)
                  (grn): GRN()
                  (pw2): Conv1d(144, 96, kernel_size=(1,), stride=(1,), bias=False)
                  (drop_path): DropPath(drop_prob=0.050)
                )
                (3): EBlock_DS(
                  (act1): Snake()
                  (act2): ELU(alpha=1.0)
                  (act3): Snake()
                  (norm): GroupNorm(4, 96, eps=1e-05, affine=True)
                  (pw1): Conv1d(96, 144, kernel_size=(1,), stride=(1,), bias=False)
                  (dw): Conv1d(144, 144, kernel_size=(3,), stride=(1,), padding=(27,), dilation=(27,), groups=144, bias=False)
                  (grn): GRN()
                  (pw2): Conv1d(144, 96, kernel_size=(1,), stride=(1,), bias=False)
                  (drop_path): DropPath(drop_prob=0.050)
                )
              )
            )
          )
        )
        (1): EncoderStage(
          (downscale): EBlock_DOWN(
            (act): Snake()
            (norm): GroupNorm(4, 96, eps=1e-05, affine=True)
            (dw): Conv1d(96, 192, kernel_size=(8,), stride=(4,), padding=(2,), bias=False)
          )
          (blocks): ModuleList(
            (0): EncoderBlock(
              (conv): ModuleList(
                (0): EBlock_DS(
                  (act1): Snake()
                  (act2): ELU(alpha=1.0)
                  (act3): Snake()
                  (norm): GroupNorm(4, 192, eps=1e-05, affine=True)
                  (pw1): Conv1d(192, 288, kernel_size=(1,), stride=(1,), bias=False)
                  (dw): Conv1d(288, 288, kernel_size=(3,), stride=(1,), padding=(1,), groups=288, bias=False)
                  (grn): GRN()
                  (pw2): Conv1d(288, 192, kernel_size=(1,), stride=(1,), bias=False)
                  (drop_path): DropPath(drop_prob=0.050)
                )
                (1): EBlock_DS(
                  (act1): Snake()
                  (act2): ELU(alpha=1.0)
                  (act3): Snake()
                  (norm): GroupNorm(4, 192, eps=1e-05, affine=True)
                  (pw1): Conv1d(192, 288, kernel_size=(1,), stride=(1,), bias=False)
                  (dw): Conv1d(288, 288, kernel_size=(3,), stride=(1,), padding=(3,), dilation=(3,), groups=288, bias=False)
                  (grn): GRN()
                  (pw2): Conv1d(288, 192, kernel_size=(1,), stride=(1,), bias=False)
                  (drop_path): DropPath(drop_prob=0.050)
                )
                (2): EBlock_DS(
                  (act1): Snake()
                  (act2): ELU(alpha=1.0)
                  (act3): Snake()
                  (norm): GroupNorm(4, 192, eps=1e-05, affine=True)
                  (pw1): Conv1d(192, 288, kernel_size=(1,), stride=(1,), bias=False)
                  (dw): Conv1d(288, 288, kernel_size=(3,), stride=(1,), padding=(9,), dilation=(9,), groups=288, bias=False)
                  (grn): GRN()
                  (pw2): Conv1d(288, 192, kernel_size=(1,), stride=(1,), bias=False)
                  (drop_path): DropPath(drop_prob=0.050)
                )
              )
            )
          )
        )
        (2): EncoderStage(
          (downscale): EBlock_DOWN(
            (act): Snake()
            (norm): GroupNorm(4, 192, eps=1e-05, affine=True)
            (dw): Conv1d(192, 384, kernel_size=(8,), stride=(4,), padding=(2,), bias=False)
          )
          (blocks): ModuleList(
            (0): EncoderBlock(
              (conv): ModuleList(
                (0): EBlock_DS(
                  (act1): Snake()
                  (act2): ELU(alpha=1.0)
                  (act3): Snake()
                  (norm): GroupNorm(4, 384, eps=1e-05, affine=True)
                  (pw1): Conv1d(384, 576, kernel_size=(1,), stride=(1,), bias=False)
                  (dw): Conv1d(576, 576, kernel_size=(3,), stride=(1,), padding=(1,), groups=576, bias=False)
                  (grn): GRN()
                  (pw2): Conv1d(576, 384, kernel_size=(1,), stride=(1,), bias=False)
                  (drop_path): DropPath(drop_prob=0.050)
                )
                (1): EBlock_DS(
                  (act1): Snake()
                  (act2): ELU(alpha=1.0)
                  (act3): Snake()
                  (norm): GroupNorm(4, 384, eps=1e-05, affine=True)
                  (pw1): Conv1d(384, 576, kernel_size=(1,), stride=(1,), bias=False)
                  (dw): Conv1d(576, 576, kernel_size=(3,), stride=(1,), padding=(3,), dilation=(3,), groups=576, bias=False)
                  (grn): GRN()
                  (pw2): Conv1d(576, 384, kernel_size=(1,), stride=(1,), bias=False)
                  (drop_path): DropPath(drop_prob=0.050)
                )
                (2): EBlock_DS(
                  (act1): Snake()
                  (act2): ELU(alpha=1.0)
                  (act3): Snake()
                  (norm): GroupNorm(4, 384, eps=1e-05, affine=True)
                  (pw1): Conv1d(384, 576, kernel_size=(1,), stride=(1,), bias=False)
                  (dw): Conv1d(576, 576, kernel_size=(3,), stride=(1,), padding=(9,), dilation=(9,), groups=576, bias=False)
                  (grn): GRN()
                  (pw2): Conv1d(576, 384, kernel_size=(1,), stride=(1,), bias=False)
                  (drop_path): DropPath(drop_prob=0.050)
                )
              )
            )
          )
        )
        (3): EncoderStage(
          (downscale): EBlock_DOWN(
            (act): Snake()
            (norm): GroupNorm(4, 384, eps=1e-05, affine=True)
            (dw): Conv1d(384, 768, kernel_size=(8,), stride=(4,), padding=(2,), bias=False)
          )
          (blocks): ModuleList(
            (0): EncoderBlock(
              (conv): ModuleList(
                (0): EBlock_DS(
                  (act1): Snake()
                  (act2): ELU(alpha=1.0)
                  (act3): Snake()
                  (norm): GroupNorm(4, 768, eps=1e-05, affine=True)
                  (pw1): Conv1d(768, 1152, kernel_size=(1,), stride=(1,), bias=False)
                  (dw): Conv1d(1152, 1152, kernel_size=(3,), stride=(1,), padding=(1,), groups=1152, bias=False)
                  (grn): GRN()
                  (pw2): Conv1d(1152, 768, kernel_size=(1,), stride=(1,), bias=False)
                  (drop_path): DropPath(drop_prob=0.050)
                )
                (1): EBlock_DS(
                  (act1): Snake()
                  (act2): ELU(alpha=1.0)
                  (act3): Snake()
                  (norm): GroupNorm(4, 768, eps=1e-05, affine=True)
                  (pw1): Conv1d(768, 1152, kernel_size=(1,), stride=(1,), bias=False)
                  (dw): Conv1d(1152, 1152, kernel_size=(3,), stride=(1,), padding=(3,), dilation=(3,), groups=1152, bias=False)
                  (grn): GRN()
                  (pw2): Conv1d(1152, 768, kernel_size=(1,), stride=(1,), bias=False)
                  (drop_path): DropPath(drop_prob=0.050)
                )
                (2): EBlock_DS(
                  (act1): Snake()
                  (act2): ELU(alpha=1.0)
                  (act3): Snake()
                  (norm): GroupNorm(4, 768, eps=1e-05, affine=True)
                  (pw1): Conv1d(768, 1152, kernel_size=(1,), stride=(1,), bias=False)
                  (dw): Conv1d(1152, 1152, kernel_size=(3,), stride=(1,), padding=(9,), dilation=(9,), groups=1152, bias=False)
                  (grn): GRN()
                  (pw2): Conv1d(1152, 768, kernel_size=(1,), stride=(1,), bias=False)
                  (drop_path): DropPath(drop_prob=0.050)
                )
              )
            )
          )
        )
      )
      (final_block): EncoderFinalBlock(
        (norm): Sequential(
          (0): Snake()
          (1): GroupNorm(8, 768, eps=1e-05, affine=True)
        )
        (down): Conv1d(768, 1536, kernel_size=(4,), stride=(2,), padding=(1,))
        (act): Snake()
        (to_latent): Conv1d(1536, 128, kernel_size=(3,), stride=(1,), padding=(1,))
      )
    )
    (decoder): Decoder(
      (from_latent): Conv1d(128, 1536, kernel_size=(3,), stride=(1,), padding=(1,))
      (final_conv): Sequential(
        (0): Snake()
        (1): Conv1d(96, 16, kernel_size=(7,), stride=(1,), padding=(3,))
        (2): Tanh()
      )
      (conv): Sequential(
        (0): DecoderStage(
          (blocks): Sequential(
            (0): Sequential(
              (0): Snake()
              (1): ConvTranspose1d(1536, 768, kernel_size=(4,), stride=(2,), padding=(1,), bias=False)
            )
            (1): DecoderBlock(
              (conv): Sequential(
                (0): DBlock_DS(
                  (net): Sequential(
                    (0): Snake()
                    (1): GroupNorm(4, 768, eps=1e-05, affine=True)
                    (2): Conv1d(768, 1152, kernel_size=(1,), stride=(1,), bias=False)
                    (3): ELU(alpha=1.0)
                    (4): Conv1d(1152, 1152, kernel_size=(3,), stride=(1,), padding=(1,), groups=1152, bias=False)
                    (5): Snake()
                    (6): GRN()
                    (7): Conv1d(1152, 768, kernel_size=(1,), stride=(1,), bias=False)
                  )
                  (drop_path): DropPath(drop_prob=0.050)
                )
                (1): DBlock_DS(
                  (net): Sequential(
                    (0): Snake()
                    (1): GroupNorm(4, 768, eps=1e-05, affine=True)
                    (2): Conv1d(768, 1152, kernel_size=(1,), stride=(1,), bias=False)
                    (3): ELU(alpha=1.0)
                    (4): Conv1d(1152, 1152, kernel_size=(3,), stride=(1,), padding=(3,), dilation=(3,), groups=1152, bias=False)
                    (5): Snake()
                    (6): GRN()
                    (7): Conv1d(1152, 768, kernel_size=(1,), stride=(1,), bias=False)
                  )
                  (drop_path): DropPath(drop_prob=0.050)
                )
                (2): DBlock_DS(
                  (net): Sequential(
                    (0): Snake()
                    (1): GroupNorm(4, 768, eps=1e-05, affine=True)
                    (2): Conv1d(768, 1152, kernel_size=(1,), stride=(1,), bias=False)
                    (3): ELU(alpha=1.0)
                    (4): Conv1d(1152, 1152, kernel_size=(3,), stride=(1,), padding=(9,), dilation=(9,), groups=1152, bias=False)
                    (5): Snake()
                    (6): GRN()
                    (7): Conv1d(1152, 768, kernel_size=(1,), stride=(1,), bias=False)
                  )
                  (drop_path): DropPath(drop_prob=0.050)
                )
              )
            )
          )
        )
        (1): DecoderStage(
          (blocks): Sequential(
            (0): Sequential(
              (0): Snake()
              (1): ConvTranspose1d(768, 384, kernel_size=(8,), stride=(4,), padding=(2,), bias=False)
            )
            (1): DecoderBlock(
              (conv): Sequential(
                (0): DBlock_DS(
                  (net): Sequential(
                    (0): Snake()
                    (1): GroupNorm(4, 384, eps=1e-05, affine=True)
                    (2): Conv1d(384, 576, kernel_size=(1,), stride=(1,), bias=False)
                    (3): ELU(alpha=1.0)
                    (4): Conv1d(576, 576, kernel_size=(3,), stride=(1,), padding=(1,), groups=576, bias=False)
                    (5): Snake()
                    (6): GRN()
                    (7): Conv1d(576, 384, kernel_size=(1,), stride=(1,), bias=False)
                  )
                  (drop_path): DropPath(drop_prob=0.050)
                )
                (1): DBlock_DS(
                  (net): Sequential(
                    (0): Snake()
                    (1): GroupNorm(4, 384, eps=1e-05, affine=True)
                    (2): Conv1d(384, 576, kernel_size=(1,), stride=(1,), bias=False)
                    (3): ELU(alpha=1.0)
                    (4): Conv1d(576, 576, kernel_size=(3,), stride=(1,), padding=(3,), dilation=(3,), groups=576, bias=False)
                    (5): Snake()
                    (6): GRN()
                    (7): Conv1d(576, 384, kernel_size=(1,), stride=(1,), bias=False)
                  )
                  (drop_path): DropPath(drop_prob=0.050)
                )
                (2): DBlock_DS(
                  (net): Sequential(
                    (0): Snake()
                    (1): GroupNorm(4, 384, eps=1e-05, affine=True)
                    (2): Conv1d(384, 576, kernel_size=(1,), stride=(1,), bias=False)
                    (3): ELU(alpha=1.0)
                    (4): Conv1d(576, 576, kernel_size=(3,), stride=(1,), padding=(9,), dilation=(9,), groups=576, bias=False)
                    (5): Snake()
                    (6): GRN()
                    (7): Conv1d(576, 384, kernel_size=(1,), stride=(1,), bias=False)
                  )
                  (drop_path): DropPath(drop_prob=0.050)
                )
              )
            )
          )
        )
        (2): DecoderStage(
          (blocks): Sequential(
            (0): Sequential(
              (0): Snake()
              (1): ConvTranspose1d(384, 192, kernel_size=(8,), stride=(4,), padding=(2,), bias=False)
            )
            (1): DecoderBlock(
              (conv): Sequential(
                (0): DBlock_DS(
                  (net): Sequential(
                    (0): Snake()
                    (1): GroupNorm(4, 192, eps=1e-05, affine=True)
                    (2): Conv1d(192, 288, kernel_size=(1,), stride=(1,), bias=False)
                    (3): ELU(alpha=1.0)
                    (4): Conv1d(288, 288, kernel_size=(3,), stride=(1,), padding=(1,), groups=288, bias=False)
                    (5): Snake()
                    (6): GRN()
                    (7): Conv1d(288, 192, kernel_size=(1,), stride=(1,), bias=False)
                  )
                  (drop_path): DropPath(drop_prob=0.050)
                )
                (1): DBlock_DS(
                  (net): Sequential(
                    (0): Snake()
                    (1): GroupNorm(4, 192, eps=1e-05, affine=True)
                    (2): Conv1d(192, 288, kernel_size=(1,), stride=(1,), bias=False)
                    (3): ELU(alpha=1.0)
                    (4): Conv1d(288, 288, kernel_size=(3,), stride=(1,), padding=(3,), dilation=(3,), groups=288, bias=False)
                    (5): Snake()
                    (6): GRN()
                    (7): Conv1d(288, 192, kernel_size=(1,), stride=(1,), bias=False)
                  )
                  (drop_path): DropPath(drop_prob=0.050)
                )
                (2): DBlock_DS(
                  (net): Sequential(
                    (0): Snake()
                    (1): GroupNorm(4, 192, eps=1e-05, affine=True)
                    (2): Conv1d(192, 288, kernel_size=(1,), stride=(1,), bias=False)
                    (3): ELU(alpha=1.0)
                    (4): Conv1d(288, 288, kernel_size=(3,), stride=(1,), padding=(9,), dilation=(9,), groups=288, bias=False)
                    (5): Snake()
                    (6): GRN()
                    (7): Conv1d(288, 192, kernel_size=(1,), stride=(1,), bias=False)
                  )
                  (drop_path): DropPath(drop_prob=0.050)
                )
              )
            )
          )
        )
        (3): DecoderStage(
          (blocks): Sequential(
            (0): Sequential(
              (0): Snake()
              (1): ConvTranspose1d(192, 96, kernel_size=(8,), stride=(4,), padding=(2,), bias=False)
            )
            (1): DecoderBlock(
              (conv): Sequential(
                (0): DBlock_DS(
                  (net): Sequential(
                    (0): Snake()
                    (1): GroupNorm(4, 96, eps=1e-05, affine=True)
                    (2): Conv1d(96, 144, kernel_size=(1,), stride=(1,), bias=False)
                    (3): ELU(alpha=1.0)
                    (4): Conv1d(144, 144, kernel_size=(3,), stride=(1,), padding=(1,), groups=144, bias=False)
                    (5): Snake()
                    (6): GRN()
                    (7): Conv1d(144, 96, kernel_size=(1,), stride=(1,), bias=False)
                  )
                  (drop_path): DropPath(drop_prob=0.050)
                )
                (1): DBlock_DS(
                  (net): Sequential(
                    (0): Snake()
                    (1): GroupNorm(4, 96, eps=1e-05, affine=True)
                    (2): Conv1d(96, 144, kernel_size=(1,), stride=(1,), bias=False)
                    (3): ELU(alpha=1.0)
                    (4): Conv1d(144, 144, kernel_size=(3,), stride=(1,), padding=(3,), dilation=(3,), groups=144, bias=False)
                    (5): Snake()
                    (6): GRN()
                    (7): Conv1d(144, 96, kernel_size=(1,), stride=(1,), bias=False)
                  )
                  (drop_path): DropPath(drop_prob=0.050)
                )
                (2): DBlock_DS(
                  (net): Sequential(
                    (0): Snake()
                    (1): GroupNorm(4, 96, eps=1e-05, affine=True)
                    (2): Conv1d(96, 144, kernel_size=(1,), stride=(1,), bias=False)
                    (3): ELU(alpha=1.0)
                    (4): Conv1d(144, 144, kernel_size=(3,), stride=(1,), padding=(9,), dilation=(9,), groups=144, bias=False)
                    (5): Snake()
                    (6): GRN()
                    (7): Conv1d(144, 96, kernel_size=(1,), stride=(1,), bias=False)
                  )
                  (drop_path): DropPath(drop_prob=0.050)
                )
                (3): DBlock_DS(
                  (net): Sequential(
                    (0): Snake()
                    (1): GroupNorm(4, 96, eps=1e-05, affine=True)
                    (2): Conv1d(96, 144, kernel_size=(1,), stride=(1,), bias=False)
                    (3): ELU(alpha=1.0)
                    (4): Conv1d(144, 144, kernel_size=(3,), stride=(1,), padding=(27,), dilation=(27,), groups=144, bias=False)
                    (5): Snake()
                    (6): GRN()
                    (7): Conv1d(144, 96, kernel_size=(1,), stride=(1,), bias=False)
                  )
                  (drop_path): DropPath(drop_prob=0.050)
                )
              )
            )
          )
        )
      )
    )
  )
  (prior): GaussianPrior(
    (locs): ParameterList(
        (0): Parameter containing: [torch.float32 of size 128]
        (1): Parameter containing: [torch.float32 of size 128]
        (2): Parameter containing: [torch.float32 of size 128]
…
